data.pth (torch, 11178 bytes, 6 tensors)

l1.weight f4 [8, 124]
0.72536033 0.71119887 0.10206641 -0.0027614068 1.3237032 -0.93923503 -1.000618 0.34208876
0.6999408 0.18901017 0.33374563 0.7287121 0.73651004 0.6864228 0.6094129 0.6676394
0.676127 0.69335103 0.5700579 0.9931788 0.68148893 1.0009702 -0.44285992 -0.35170695
-0.41891113 -0.13734032 -0.1136143 0.18296844 0.2325838 -0.12268418 0.18362059 0.58788973
0.23123717 0.17888589 0.22763108 0.025073506 -0.5414155 -0.18397005 -0.10838295 -0.026735542
-0.057556383 -0.5930632 0.19603431 -0.7692473 -0.72334415 -0.23928338 -0.27422965 0.32352817
-0.4731975 -0.64020103 -0.74492663 -0.015131875 0.8466263 0.067967266 0.09775208 0.0037595117
0.30739927 0.30191547 0.88085383 1.261795 0.38355803 0.44112462 0.41116893 0.43303204
0.33421314 -0.51819503 -0.001447042 0.045466803 -0.050999112 -0.04310645 0.0038339512 0.050442703
-0.1670735 -0.23609844 -0.13188529 -0.16234852 -0.12072329 -0.110189885 -0.3977967 0.8359248
0.6414171 0.8426598 0.5589272 0.5765396 0.59404 0.64819366 0.68487996 0.5136064
0.5110569 0.40014082 0.49461898 0.45005447 -0.54662985 -0.26657915 -0.40789202 -0.048508395
-0.03569909 0.010477258 -0.11008137 -0.09947909 -0.019851603 0.7828358 0.29140198 0.01892211
0.4184975 -0.43241134 -0.34408325 -0.3187009 -0.79053843 0.13578488 -0.41021585 0.37902957
0.4699899 -0.24026704 -0.65852356 -0.4968523 -0.06511448 -0.015908564 0.6343421 0.76453626
-0.5304157 -0.4722165 -0.42285308 -0.47394562 0.90198565 0.80311334 -0.17708693 0.16308908
0.09878882 -0.36116102 -0.26306865 -0.48827294 0.31130737 -0.04492153 -0.08009096 0.73505867
0.7589897 0.6788967 -0.031013316 0.028123943 -0.07093591 -0.061605014 -0.09767269 0.59727824
0.7207503 0.17690988 -0.28455427 -0.1937423 -0.1775648 -0.04961237 -0.0046896446 0.3351906
0.42187726 -0.13850643 0.27648872 0.47350666 0.27190322 0.36195013 0.28787887 0.8211343
-0.090144046 -0.08111918 -0.116208285 -0.2387139 0.027835887 -0.22906499 0.13160321 0.4039258
0.38384262 0.99586374 0.9739196 -0.7629768 0.07226855 0.14298034 -0.0044094315 0.036465246
0.3438391 0.73690814 0.7492269 0.67442685 0.8186563 0.7780632 0.69223267 0.17942879
0.2443737 0.35860023 0.2547442 0.28956747 0.2766174 -0.0029391604 0.5786523 0.6202267
0.49051175 0.6417896 0.6442396 0.586342 0.034158323 -0.1761408 -0.028930953 -0.060388733
-0.16402341 -0.1549492 -0.15298162 0.2837887 -0.24084514 0.27012226 0.7183056 0.7341751
0.7874023 0.75150645 0.7712958 0.61075443 0.5488054 0.5888286 0.6656178 0.6670195
-0.24045613 0.48282716 0.6086236 -0.04992512 -0.011522171 -0.03214096 0.020626284 -0.05600211
-0.13805325 -0.32085216 -0.017082706 -0.52737033 -0.03336418 -0.27222973 -0.48353016 -0.22957309
-0.636611 0.9445419 -0.061535932 -0.7211626 -0.5575302 -0.51132905 -0.8741684 -0.8309581
0.22492348 0.34370697 -0.93506 -0.9263165 -0.022480994 -0.017734617 -0.07867612 0.026495427
0.7231207 0.8241731 -0.27235058 0.017167078 -0.65352553 0.6639101 0.80116135 1.2096368
00000000: 37b1 393f 2111 363f 3208 d13d b8f8 34bb
00000010: 1b6f a93f b571 70bf 4014 80bf 4226 af3e
00000020: 522f 333f e28b 413e b5e0 aa3e e08c 3a3f
00000030: ec8b 3c3f 68b9 2f3f 7c02 1c3f 6aea 2a3f
00000040: a916 2d3f 747f 313f 51ef 113f f740 7e3f
00000050: 0f76 2e3f cb1f 803f 89be e2be ef12 b4be
00000060: 857b d6be f1a2 0cbe 9dae e8bd 145c 3b3e
00000070: 732a 6e3e d841 fbbd 0907 3c3e f17f 163f
00000080: 70c9 6c3e dd2d 373e 1f18 693e f466 cd3c
00000090: 359a 0abf a562 3cbe e1f7 ddbd 7f04 dbbc
000000a0: 3ec0 6bbd fdd2 17bf 38bd 483e 64ed 44bf
000000b0: 152d 39bf b406 75be d467 8cbe 7ca5 a53e
000000c0: f146 f2be 37e4 23bf 83b3 3ebf afeb 77bc
000000d0: 80bc 583f 6c32 8b3d 3e32 c83d 2462 763b
000000e0: 7063 9d3e aa94 9a3e a37f 613f 8082 a13f
000000f0: b861 c43e 16db e13e bc84 d23e 60b6 dd3e
00000100: fc1d ab3e 6ea8 04bf acaa bdba 663b 3a3d
00000110: 72e4 50bd 6490 30bd 0743 7b3b 029d 4e3d
00000120: 5115 2bbe cac3 71be f00c 07be b13e 26be
00000130: c63d f7bd 3cab e1bd 02ac cbbe 2bff 553f
00000140: e933 243f 8db8 573f da15 0f3f 1998 133f
00000150: 0113 183f 05f0 253f 4b54 2f3f b67b 033f
00000160: a0d4 023f 42df cc3e b33e fd3e 8a6d e63e
00000170: efef 0bbf 107d 88be 39d7 d0be bdb0 46bd
00000180: 3639 12bd cea8 2b3c 5772 e1bd b1bb cbbd
00000190: d49f a2bc ed67 483f a432 953e 8a02 9b3c
000001a0: 4e45 d63e 0565 ddbe ae2b b0be c42c a3be
000001b0: ba60 4abf 310b 0b3e d007 d2be 2a10 c23e
000001c0: 84a2 f03e 9008 76be 0095 28bf 6d63 febe
000001d0: be5a 85bd ad52 82bc 3e64 223f a6b8 433f
000001e0: 53c9 07bf 5cc6 f1be 3380 d8be 00a9 f2be
000001f0: 88e8 663f d698 4d3f 4756 35be d300 273e
00000200: cb51 ca3d 19ea b8be efb0 86be e9fe f9be
00000210: ae63 9f3e a3ff 37bd bb06 a4bd ce2c 3c3f
00000220: 264d 423f 2dcc 2d3f a30f febc 2f64 e63c
00000230: d946 91bd 8a55 7cbd 9f08 c8bd 3ae7 183f
00000240: 1783 383f dd27 353e 19b1 91be 6264 46be
00000250: 8cd3 35be 5736 4bbd 97ab 99bb 1a9e ab3e
00000260: 4c00 d83e a1d4 0dbe ee8f 8d3e 776f f23e
00000270: e636 8b3e 8751 b93e dc64 933e dc35 523f
00000280: 719d b8bd d021 a6bd 9cfe edbd 6b71 74be
00000290: 1608 e43c 0390 6abe fec2 063e 5dcf ce3e
000002a0: 0587 c43e edf0 7e3f cb52 793f 7352 43bf
000002b0: 8901 943d 7069 123e fe7c 90bb 955c 153d
000002c0: ae0b b03e 03a6 3c3f 56cd 3f3f 3da7 2c3f
000002d0: 7693 513f 262f 473f 2936 313f 2ebc 373e
000002e0: 193d 7a3e 739a b73e d56d 823e 3042 943e
000002f0: cca0 8d3e ee9e 40bb 8f22 143f 2dc7 1e3f
00000300: 5b24 fb3e 534c 243f e3ec 243f 821a 163f
00000310: 99e9 0b3d 415e 34be 9b00 edbc 2d5a 77bd
00000320: c1f5 27be 01ab 1ebe 37a7 1cbe c14c 913e
00000330: 1ca0 76be 774d 8a3e e0e2 373f e6f2 3b3f
00000340: 3293 493f ba62 403f a473 453f 675a 1c3f
00000350: 837e 0c3f 79bd 163f ee65 2a3f cac1 2a3f
00000360: 223a 76be 1f35 f73e c2ce 1b3f 487e 4cbd
00000370: 7dc7 3cbc 3da6 03bd 74f8 a83c 7862 65bd
00000380: d55d 0dbe bc46 a4be 08f1 8bbc be01 07bf
00000390: e1a8 08bd b261 8bbe 4491 f7be 3515 6bbe
000003a0: f0f8 22bf 7fcd 713f 1a0d 7cbd 1d9e 38bf
000003b0: 4dba 0ebf 76e6 02bf 80c9 5fbf acb9 54bf
000003c0: 5752 663e 5cfa af3e 1860 6fbf 1423 6dbf
000003d0: 102a b8bc 3048 91bc f220 a1bd f00c d93c
000003e0: 701e 393f 02fd 523f 8971 8bbe f9a1 8c3c
000003f0: 734d 27bf 03f6 293f e918 4d3f 61d5 9a3f

l1.bias f4 [8]
0.50606996 0.6363554 0.51252973 0.41067648 0.5066401 0.43579462 0.6699221 1.0010554
00000000: cd8d 013f 30e8 223f 2635 033f 3044 d23e
00000010: 2ab3 013f 7920 df3e 0480 2b3f 9522 803f

l2.weight f4 [8, 8]
-0.19771954 -0.0006657243 -0.2953677 -0.29522812 -0.3143516 -0.1749219 -0.081933945 -0.10310784
0.12472069 1.0242176 -0.18797499 1.519771 1.5158271 -0.8599339 1.3243955 -1.112613
0.09262436 -1.3907243 0.03445888 1.1666372 0.60975194 -1.5530471 0.31030092 1.075954
1.4332894 -1.0641018 0.566325 1.3073033 1.272758 0.9842621 -1.4224898 0.5139905
1.6211212 1.7119408 0.11047882 -0.83300096 0.78536 -1.5762804 -0.3046715 0.8905478
-0.15546438 -0.14155555 0.06948933 -0.07619536 0.17601898 0.028364658 -0.038589776 -0.14696138
-0.55583006 1.0330485 0.8806576 -0.4940214 0.2742373 0.7955687 -0.18581232 1.3335825
0.14780788 0.5235651 -2.0437627 0.0047563934 0.45963532 1.3051822 1.6094929 1.6137089
00000000: fe76 4abe 0084 2eba 6f3a 97be 2428 97be
00000010: b1f2 a0be ba1e 33be fccc a7bd 342a d3bd
00000020: 906d ff3d 9019 833f 847c 40be db87 c23f
00000030: 9f06 c23f a124 5cbf cb85 a93f 1a6a 8ebf
00000040: d7b1 bd3d 4103 b2bf c124 0d3d 5e54 953f
00000050: b418 1c3f 3fca c6bf c3df 9e3e dcb8 893f
00000060: 0776 b73f 7d34 88bf adfa 103f b755 a73f
00000070: bce9 a23f 9af8 7b3f 2514 b6bf e294 033f
00000080: e680 cf3f e020 db3f b842 e23d 8d3f 55bf
00000090: 5a0d 493f 8ec3 c9bf e7fd 9bbe f1fa 633f
000000a0: 0e32 1fbe f0f3 10be 6c50 8e3d 500c 9cbd
000000b0: 523e 343e 005d e83c 5010 1ebd 0b7d 16be
000000c0: e14a 0ebf ef3a 843f c772 613f 5ff0 fcbe
000000d0: d568 8c3e 64aa 4b3f 9645 3ebe d5b2 aa3f
000000e0: f35a 173e 5d08 063f 02cd 02c0 85db 9b3b
000000f0: 5255 eb3e 3610 a73f dd03 ce3f 038e ce3f

l2.bias f4 [8]
-0.32082656 -0.27862936 0.4213243 -0.7305667 0.0040021716 -0.31293225 -0.6656051 0.63293755
00000000: 6143 a4be 82a8 8ebe d2b7 d73e 6b06 3bbf
00000010: a624 833b a838 a0be 1965 2abf 3208 223f

l3.weight f4 [38, 8]
-0.15266047 -1.5559167 -1.2491529 -0.7993825 -1.8641297 0.22437575 0.18638763 0.70026463
0.35186937 -1.7290462 0.21509054 0.39133298 -2.1251588 0.2378141 -0.2534101 0.34192508
-0.16486621 0.07025733 0.73435247 -0.2472518 -1.978927 -0.060551494 -1.2131386 0.27089232
-0.19148767 0.15425326 -0.13891916 -1.9834256 -0.099739805 -0.29304093 -0.32670197 0.37278494
0.03896174 -0.29765904 -0.07361158 0.25897014 -0.323299 0.16953251 -0.2056124 -0.5906384
-0.11383076 -0.062406495 0.14019118 -0.03893465 -0.5114072 0.066768795 -0.5007398 0.0071369163
0.3517163 0.10801121 0.5437895 0.04239272 -0.64543134 -0.061745673 -0.75062954 -0.7078591
-0.12357983 -0.3264024 0.3084727 -0.492601 -0.75615144 0.25069264 -0.07052749 0.27231622
-0.031023085 0.49613076 -0.7324347 0.5279672 -1.2274895 0.22157356 -1.1695467 -0.6748302
0.25176468 -1.6506275 -1.2979456 -0.8727271 -1.340598 0.29633972 1.0421418 -0.36918062
-0.25785384 -1.4827995 -1.8361807 0.2584365 0.26895562 0.31951383 0.058172524 -1.1937488
-0.19911852 -1.8420792 -1.8421088 -1.153096 0.651869 -0.29832703 0.4940818 -1.2717913
-0.27559087 -0.33451116 -1.7342852 -2.3623679 0.6562298 0.25712875 0.046303947 -0.29023293
-0.066182554 -0.81326103 -1.9056898 -0.18864492 -0.89657474 0.052570492 -1.5834478 0.6465234
0.33580503 -0.069654256 -1.3235807 -0.75220674 0.39976138 0.19853035 -0.4195605 -0.022595828
0.024709761 0.8778602 0.6185546 -1.5426011 -0.90407175 0.26833394 -2.366564 -0.7440529
0.14995584 -0.028877547 -1.8187871 -1.4416355 -1.6077156 0.06217298 -1.0836865 0.9140164
0.23093829 -2.061499 -0.5834909 -0.20544694 0.2939428 0.025298297 0.07612188 -0.22174264
-0.2540611 -1.2952819 -0.3114021 0.7366906 -2.1328988 -0.123895586 0.12508817 -1.141824
-0.02183789 0.2921228 0.6450499 0.25184092 -1.4804306 -0.33187014 -2.1386418 -1.3341784
-0.17585279 0.31194493 -2.0567374 0.4812465 -2.0450797 -0.1855875 -0.029922735 -1.3018016
0.16981438 -0.5160461 -1.872045 0.16629699 -0.107227825 0.14008272 -0.22662635 0.27446142
0.0038591325 0.09952348 -1.3319684 0.28675652 -0.09277689 0.015583724 -0.34236228 -1.0090417
0.20603946 -2.297185 -1.9075363 0.68485004 -0.668078 -0.19274306 0.46963224 -1.098958
0.087553024 -0.63505465 0.13097788 -0.08110315 0.30109322 -0.1272404 -0.4242236 -0.42692813
-0.028855681 -1.3892916 -1.5801194 -2.4452846 -0.26234573 -0.06679785 0.2716385 0.6774474
-0.03399089 0.62540007 -1.3611904 -0.29396173 0.25732744 0.13707647 -0.77262545 -1.3353524
-0.096324295 -0.7407214 -1.6988049 0.5033392 0.603812 -0.3139851 -1.5983233 -0.7304834
-0.06225127 0.31918046 -1.614202 -1.0222353 -0.16869836 0.24576613 0.60956824 -1.2668924
0.10328099 0.050612304 -1.6970923 0.30268404 -2.1861367 -0.2768724 -0.24886057 0.28895858
0.04992956 0.39418006 -1.8758199 -0.5529316 -0.7260374 0.016928703 -0.3078031 0.33034566
-0.35133407 0.7645011 -1.1815863 -1.0437756 -1.3375816 0.06657049 -1.5234529 0.33146998
00000000: 0753 1cbe 4728 c7bf 3ee4 9fbf 55a4 4cbf
00000010: cd9b eebf c2c2 653e 66dc 3e3e 8b44 333f
00000020: 3928 b43e 6351 ddbf b240 5c3e cc5c c83e
00000030: 9a02 08c0 8a85 733e f8be 81be ce10 af3e
00000040: b0d2 28be 13e3 8f3d 86fe 3b3f 932f 7dbe
00000050: 7b4d fdbf d804 78bd 2048 9bbf 66b2 8a3e
00000060: 5815 44be 91f4 1d3e d340 0ebe e4e0 fdbf
00000070: 6244 ccbd 7609 96be 7b45 a7be abdd be3e
00000080: 5896 1f3d c466 98be abc1 96bd bc97 843e
00000090: 7287 a5be ee99 2d3e 0f8c 52be 1434 17bf
000000a0: 1a20 e9bd f49d 7fbd 478e 0f3e f179 1fbd
000000b0: 95eb 02bf 14be 883d 7c30 00bf cbdc e93b
000000c0: 2914 b43e fb34 dd3d ca35 0b3f fda3 2d3d
000000d0: fd3a 25bf 08e9 7cbd 4229 40bf 4136 35bf
000000e0: 6c17 fdbd 371e a7be 22f0 9d3e 3336 fcbe
000000f0: 2493 41bf c95a 803e b770 90bd 086d 8b3e
00000100: 2024 febc da04 fe3e d780 3bbf dc28 073f
00000110: 601e 9dbf 2ee4 623e b5b3 95bf acc1 2cbf
00000120: 4de7 803e c347 d3bf 1523 a6bf 0b6b 5fbf
00000130: b798 abbf d7b9 973e e764 853f 3e05 bdbe
00000140: 6b05 84be 60cc bdbf f807 ebbf ca51 843e
00000150: 8db4 893e 5197 a33e 5046 6e3d c3cc 98bf
00000160: bae5 4bbe 40c9 ebbf 39ca ebbf a698 93bf
00000170: e3e0 263f 52be 98be 4af8 fc3e 0fca a2bf
00000180: 3f1a 8dbe 0c45 abbe 0ffd ddbf 0931 17c0
00000190: adfe 273f 61a6 833e 35a9 3d3d 6999 94be
000001a0: b88a 87bd e031 50bf a5ed f3bf 222c 41be
000001b0: ec85 65bf 2854 573d 6bae cabf 8f82 253f
000001c0: a3ee ab3e e4a6 8ebd 186b a9bf 9f90 40bf
000001d0: 86ad cc3e 8a4b 4b3e a2d0 d6be e31a b9bc
000001e0: 206c ca3c 72bb 603f 9859 1e3f f473 c5bf
000001f0: 3f71 67bf 1163 893e c975 17c0 407a 3ebf
00000200: 068e 193e 9b90 ecbc 04ce e8bf 8387 b8bf
00000210: a0c9 cdbf 18a9 7e3d 3db6 8abf fbfc 693f
00000220: 167b 6c3e 9aef 03c0 a95f 15bf af60 52be
00000230: ac7f 963e 603e cf3c cae5 9b3d 8110 63be
00000240: 4c14 82be cccb a5bf 1970 9fbe c197 3c3f
00000250: 6a81 08c0 f8bc fdbd 1d17 003e 4a27 92bf
00000260: 60e5 b2bc 1f91 953e fe21 253f 4bf1 803e
00000270: c07e bdbf e2ea a9be 82df 08c0 5cc6 aabf
00000280: c112 34be 3fb7 9f3e 96a1 03c0 f165 f63e
00000290: 96e2 02c0 a60a 3ebe 8620 f5bc 6fa1 a6bf
000002a0: d2e3 2d3e 991b 04bf 2c9f efbf c249 2a3e
000002b0: 439a dbbd d871 0f3e bd10 68be 3586 8c3e
000002c0: 80e9 7c3b f7d2 cb3d f17d aabf c0d1 923e
000002d0: cf01 bebd e052 7f3c 1c4a afbe 4728 81bf
000002e0: 02fc 523e 1405 13c0 262a f4bf 5552 2f3f
000002f0: 2907 2bbf 705e 45be a373 f03e a8aa 8cbf
00000300: 004f b33d f192 22bf 111f 063e 6919 a6bd
00000310: e428 9a3e 4f4b 02be d633 d9be 5396 dabe
00000320: c062 ecbc 4fd4 b1bf 5a41 cabf 8b7f 1cc0
00000330: 2e52 86be 50cd 88bd 3414 8b3e 316d 2d3f
00000340: 083a 0bbd 381a 203f 7d3b aebf 2782 96be
00000350: 6cc0 833e c65d 0c3e c8ca 45bf d4ec aabf
00000360: ac45 c5bd eb9f 3dbf 7072 d9bf d6da 003f
00000370: 6c93 1a3f a8c2 a0be dc95 ccbf f600 3bbf
00000380: 30fb 7ebd 9f6b a33e 2c9e cebf 9bd8 82bf
00000390: 43bf 2cbe 1eaa 7b3e aa0c 1c3f 8829 a2bf
000003a0: fc84 d33d d94e 4f3d 523a d9bf 67f9 9a3e
000003b0: aae9 0bc0 38c2 8dbe 4ed5 7ebe 61f2 933e
000003c0: f082 4c3d f8d1 c93e de1a f0bf ed8c 0dbf
000003d0: 96dd 39bf 10ae 8a3c 5e98 9dbe 1123 a93e
000003e0: 0fe2 b3be 58b6 433f 383e 97bf 709a 85bf
000003f0: e035 abbf 1c56 883d 8100 c3bf 6fb6 a93e

l3.bias f4 [38]
-0.45962742 -0.22829151 -0.35886055 -0.34742755 -0.79624254 -1.1413709 -0.73172545 -1.1379555
-0.18089794 0.56832004 -0.43060258 -0.00989171 -0.31430376 1.6146153 -1.0203356 0.7495045
-0.05811839 -0.613593 -0.42575198 -0.34173134 -0.20007378 -0.37340382 -0.56848586 0.0661786
-0.43618882 -0.0031476072 -0.3099766 -0.07728889 0.8102513 -0.33766934 -0.75111747 -0.280271
-0.5267618 -0.7483568 -0.4842885 -0.45869294 -0.58303964 1.8137429
00000000: 4954 ebbe 40c5 69be 92bc b7be 06e2 b1be
00000010: 8dd6 4bbf 7118 92bf 5c52 3bbf 87a8 91bf
00000020: 4f3d 39be 6c7d 113f f177 dcbe d710 22bc
00000030: 6cec a0be b7ab ce3f 5b9a 82bf 87df 3f3f
00000040: 8d0d 6ebd 6e14 1dbf 2afc d9be 69f7 aebe
00000050: 24e0 4cbe c92e bfbe 4a88 11bf a588 873d
00000060: 2454 dfbe 1648 4ebb 41b5 9ebe a349 9ebd
00000070: a16c 4f3f ffe2 acbe 3c49 40bf ae7f 8fbe
00000080: dcd9 06bf 5094 3fbf aaf4 f7be cdd9 eabe
00000090: 1642 15bf ba28 e83f
