data.pth (torch, 9130 bytes, 6 tensors)

l1.weight f4 [8, 124]
0	0x3f2ab53f	0.6668281
1	0x3f0fe427	0.5620751
2	0x3ef96296	0.48708028
3	0x3ece98ab	0.4035085
4	0x3f45eee1	0.77317625
5	0xbb1ec7e5	-0.0024228033
6	0x3c9cdd29	0.019148426
7	0x3f441291	0.7659083
8	0x3f59a873	0.8502266
9	0x3ec501c3	0.38477907
10	0x3ee00609	0.43754604
11	0xbdb5fad0	-0.08885729
12	0x3d11b1a1	0.03556979
13	0x3c88cf85	0.016700516
14	0x3f159b43	0.58440036
15	0x3f037fb7	0.5136675
16	0x3f1c24b7	0.6099352
17	0x3f1ec876	0.6202463
18	0x3ef9669c	0.48711097
19	0x3eaedcf3	0.34152946
20	0xbea59cca	-0.32346183
21	0x3ea94b3b	0.3306521
22	0xbea814f6	-0.32828492
23	0xbeb961ed	-0.36207524
24	0xbeae74de	-0.34073538
25	0xbea72891	-0.32648137
26	0xbea8da5d	-0.32979098
27	0xbe34bc94	-0.17650062
28	0xbea064a8	-0.31326795
29	0x3e4aa7fd	0.19790645
30	0xbe746eb6	-0.23870358
31	0xbe19c1fa	-0.15015402
32	0xbe7942a4	-0.24341828
33	0xbea194f2	-0.3155895
34	0xbe9e2340	-0.3088627
35	0xbdb4bac5	-0.08824686
36	0x3e8a57d4	0.27020133
37	0x3df584a9	0.119881935
38	0x3ca25c2a	0.019819338
39	0x3d9a518d	0.07535086
40	0x3e987ddf	0.29783532
41	0x3e87a051	0.264895
42	0x3cddeb65	0.027089784
43	0xbd818d26	-0.0632575
44	0xbcb58834	-0.022159673
45	0x3e0d5241	0.13800909
46	0x3e946a9d	0.2898759
47	0x3e7ee464	0.24891812
48	0xbc8654ed	-0.016397918
49	0xbee9d0a5	-0.45666996
50	0xbef878bb	-0.4852961
51	0xbe7e2eb2	-0.248225
52	0x3f1614e8	0.5862565
53	0x3e1a82a1	0.15088893
54	0x3e850f3b	0.25988182
55	0x3e2c7001	0.16839601
56	0xbe1b6b59	-0.15177669
57	0xbe2818d3	-0.1641572
58	0x3ee6c1fe	0.4506988
59	0x3e844925	0.25837055
60	0xbca5692a	-0.020191748
61	0x3cd19ed3	0.025588429
62	0xbd06a9b9	-0.032876704
63	0x3bcd4b20	0.006265059
64	0xbcc26dee	-0.02373406
65	0x3ed3def9	0.41381052
66	0x3c95f37a	0.018304575
67	0x3d8f2a19	0.06990451
68	0x3db76c3d	0.08956192
69	0xbd3aca73	-0.045603227
70	0xbce955c4	-0.028483279
71	0x3d13975f	0.03603303
72	0xbe5a658b	-0.21327798
73	0xbe96c166	-0.29444426
74	0xbe96471a	-0.2935112
75	0xbe0fd926	-0.1404768
76	0xbe861ce7	-0.26193926
77	0xbe01c526	-0.12672862
78	0x3ea0b6cf	0.31389472
79	0x3eda8ea0	0.4268694
80	0x3eea41f4	0.45753443
81	0x3f002b2f	0.5006589
82	0x3e10125b	0.14069502
83	0x3e4009d2	0.18753746
84	0x3e8f19ed	0.27949467
85	0x3e0a2203	0.13489537
86	0x3e935a6f	0.28779933
87	0x3e2eabb4	0.17057687
88	0x3e66724e	0.22504541
89	0x3e4a62b4	0.19764215
90	0x3eb16457	0.34646866
91	0x3e585f9c	0.21130222
92	0x3e2547f4	0.16140729
93	0xbd427f40	-0.047484636
94	0x3dae8a9f	0.085225336
95	0x3cef397f	0.029202221
96	0x3d707663	0.058706652
97	0x3d493f15	0.049132425
98	0x3e2bdf8b	0.16784494
99	0x3bfdd236	0.0077460064
100	0x3e214b88	0.15751469
101	0xbcc13625	-0.023585388
102	0x3e95f102	0.29285437
103	0x3ec722c7	0.3889372
104	0x3df70a63	0.12062528
105	0x3dbf5eb6	0.093442366
106	0x3efc92f3	0.49330863
107	0x3cb079df	0.021542488
108	0x3bde7ea3	0.0067899986
109	0x3c204660	0.009782404
110	0x3e909baf	0.28243777
111	0x3ec7e5cf	0.39042518
112	0x3ec16294	0.37770522
113	0x3f0d8283	0.5527727
114	0x3efc239d	0.4924592
115	0x3edfd62c	0.43718088
116	0xbe7b9a59	-0.24570598
117	0xbe47b725	-0.19503458
118	0x3f06b8df	0.5262584
119	0x3ed8d4c9	0.42349842
120	0x3e536ae0	0.20646238
121	0x3eadbdcb	0.33933863
122	0x3ebdc7f7	0.37066624
123	0x3eafa90f	0.3430867
124	0x3f0baac9	0.5455747
125	0x3f08c0aa	0.5341898
126	0x3f57c780	0.8428879
127	0x3f8cc466	1.0997436
128	0x3f339c57	0.7016043
129	0x3f83f01b	1.0307649
130	0x3f81be0d	1.0136124
131	0x3d19450e	0.03741937
132	0xbeb21c60	-0.34787273
133	0xbd0ce948	-0.03440216
134	0xbdc0f2e8	-0.09421331
135	0xbe0a2d44	-0.1349383
136	0xbd9dc5f5	-0.07703773
137	0xbdc6f937	-0.09715503
138	0xbf1a0284	-0.6016009
139	0xbeec213a	-0.461191
140	0xbf14eeaf	-0.581767
141	0xbf0d3c97	-0.5517058
142	0xbf1c98a6	-0.61170423
143	0xbeafade4	-0.34312356
144	0xbeea78ce	-0.45795292
145	0xbe599ecb	-0.21251981
146	0xbeeb8574	-0.46000254
147	0xbede8a18	-0.43464732
148	0xbeee0a0e	-0.46492046
149	0xbe6722a4	-0.22571808
150	0xbe328e4f	-0.17437099
151	0x3d934c52	0.07192291
152	0xbc4a1e95	-0.012336393
153	0x3d788570	0.06067413
154	0x3ca606a9	0.020266848
155	0x3ea9b1a5	0.33143345
156	0x3dce710d	0.100801565
157	0xbcc44e3f	-0.023963092
158	0x3da2ec1f	0.07955193
159	0xbec42232	-0.3830734
160	0x3e1bb07c	0.15204042
161	0xbd85082d	-0.064957
162	0xbd47e4f4	-0.04880233
163	0x3ce01478	0.02735351
164	0x3ec8be41	0.39207652
165	0x3e7bed30	0.24602199
166	0x3f2e1f3d	0.68016416
167	0x3e5cd467	0.215654
168	0x3e74a0c9	0.2388946
169	0x3eb45b69	0.3522599
170	0x3ebc0024	0.36718857
171	0x3efeca8f	0.49763915
172	0xbdedda9d	-0.11613963
173	0x3dd43643	0.10361912
174	0x3d1826a7	0.037146237
175	0x3e418e2d	0.18901892
176	0x3f24ae0c	0.64328074
177	0xbeea34b1	-0.45743325
178	0xbee35aab	-0.44405112
179	0xbef32fa9	-0.474973
180	0xbf1a45c1	-0.60262686
181	0xbf1528dd	-0.5826548
182	0xbe3b83cf	-0.18312
183	0xbe064222	-0.13111165
184	0x3eccd189	0.40003613
185	0x3ea1ffb4	0.31640399
186	0x3eca7079	0.39538935
187	0x3e9b618b	0.30347857
188	0x3eb95a94	0.36201918
189	0xbd633881	-0.05547381
190	0x3e38ff81	0.18066217
191	0x3e480e3c	0.1953668
192	0x3e7c9476	0.24666008
193	0x3e4036c9	0.18770899
194	0x3eaf80c9	0.34277943
195	0x3e332e15	0.17498048
196	0x3df0fe3b	0.117672406
197	0x3dbf895d	0.09352372
198	0x3df109e2	0.11769463
199	0x3e16f63e	0.14742371
200	0x3d9c87a3	0.07643058
201	0x3e136740	0.14394855
202	0x3e121222	0.1426473
203	0x3f312849	0.69202095
204	0x3f28a796	0.65880716
205	0x3f22e951	0.6363726
206	0x3e0217c1	0.12704374
207	0x3dbcd1c2	0.09219696
208	0x3e54eea5	0.2079416
209	0x3da86ab1	0.08223475
210	0x3d7d9370	0.061908185
211	0x3e6fde3e	0.23424622
212	0x3e8af177	0.27137348
213	0x3e804e51	0.2505975
214	0x3e62660e	0.22109243
215	0x3e368f85	0.17828186
216	0x3eb5cd59	0.3550823
217	0x3e451ee7	0.1925007
218	0x3de2248b	0.11042126
219	0x3e145374	0.1448496
220	0x3e89b8f1	0.26898912
221	0x3e872641	0.26396373
222	0x3e94a34c	0.29030836
223	0x3e216ce0	0.15764189
224	0x3e183a38	0.14865959
225	0x3e708c20	0.23490953
226	0x3e1c79a9	0.15280785
227	0x3e9f16ca	0.31072074
228	0x3dfae608	0.12250906
229	0x3de67ad4	0.11253896
230	0xbe347a1c	-0.17624706
231	0x3d265b10	0.040614188
232	0x3e0fa314	0.14027053
233	0xbb627c46	-0.0034558936
234	0x3dc3d420	0.09561944
235	0x3d8a962f	0.067669265
236	0x3cfca4be	0.030840274
237	0xbd258230	-0.04040736
238	0x3cbfd210	0.023415595
239	0xbe83a7ec	-0.25714052
240	0x3e46aa4c	0.194009
241	0x3e2afbec	0.16697663
242	0x3e8ae452	0.2712732
243	0x3ed7749f	0.42081162
244	0x3e103ad8	0.14084947
245	0x3e31ca02	0.17362216
246	0x3e53d61a	0.20687142
247	0x3d9f7747	0.07786422
248	0x3e5ab460	0.2135787
249	0x3ec7fd24	0.39060318
250	0xbde4bd44	-0.11168912
251	0x3f05b0bf	0.5222282
252	0x3f0c542f	0.54815954
253	0xbe2313fa	-0.15925589
254	0xbea2f33d	-0.318262
255	0xbddb3a62	-0.10704495

l1.bias f4 [8]
0	0x3f236715	0.63829166
1	0x3f2e061f	0.6797809
2	0x3ee952bd	0.45570937
3	0x3f3d990d	0.7406166
4	0x3f026bdc	0.5094583
5	0x3f49ded8	0.7885566
6	0xbd8c79a6	-0.0685914
7	0x3f27ccd9	0.6554695

l2.weight f4 [8, 8]
0	0x3f28d8a2	0.65955555
1	0x3f89b6ee	1.0758951
2	0x3f576cb3	0.84150237
3	0x3ccf28c3	0.025287991
4	0x3fc65435	1.5494448
5	0x3eeed459	0.46646383
6	0xbe996e12	-0.2996679
7	0xbf574a5f	-0.84097856
8	0x3eed8571	0.4639087
9	0x3f8688aa	1.0510457
10	0x3f7642f9	0.9619594
11	0x3f236700	0.6382904
12	0xbf356584	-0.70858026
13	0xbfa12f92	-1.2592642
14	0x3ce44807	0.027866377
15	0xbcfdf2cc	-0.030999564
16	0x3eca489f	0.3950853
17	0xbe61ae39	-0.22039117
18	0xbec39cda	-0.38205606
19	0x3f82e740	1.0226822
20	0x3d85f0b2	0.065400496
21	0xbee1a7e6	-0.4407341
22	0x3e0358b1	0.12826802
23	0x3f59defc	0.8510587
24	0x3f5f43d6	0.87212884
25	0x3f9e1840	1.235115
26	0xbf3af1d3	-0.73025244
27	0xbe809c08	-0.25119042
28	0xbf4c666d	-0.7984379
29	0x3f747683	0.95493335
30	0x3e030d2b	0.12797992
31	0x3ece8ed1	0.40343335
32	0x3fa36603	1.2765507
33	0xbe6f9ebb	-0.23400395
34	0xbe9e82bb	-0.30959114
35	0x3f0ccb0e	0.54997337
36	0x3e80f17f	0.25184247
37	0xbef15974	-0.4713856
38	0xbe951742	-0.29119307
39	0xbf5cb00e	-0.8620614
40	0x3ee11139	0.43958452
41	0xbdb6dbfd	-0.08928678
42	0xbf877600	-1.0582886
43	0x3f9af372	1.2105544
44	0xbe310052	-0.17285278
45	0xbf8ab02b	-1.0835012
46	0x3e593688	0.21212208
47	0xbec1f07a	-0.37878782
48	0x3c8c050c	0.01709225
49	0xbf2edc72	-0.6830512
50	0x3eeb0077	0.45898792
51	0x3fb0a7e7	1.380124
52	0xbf175d4e	-0.59126747
53	0x3f8c1e08	1.0946665
54	0xbdfe33ba	-0.1241221
55	0x3f3780d9	0.7168098
56	0x3dd918b4	0.10600415
57	0x3f802433	1.0011047
58	0xbf85c049	-1.0449306
59	0x3de09a6c	0.10966954
60	0xbeb947ce	-0.36187595
61	0x3e8ca3a6	0.27468604
62	0x3e633c16	0.2219089
63	0x3f8072e0	1.0035057

l2.bias f4 [8]
0	0x3e78fe36	0.24315724
1	0x3e21260b	0.15737168
2	0x3f08dffb	0.5346677
3	0x3ed072d7	0.40712616
4	0x3e769301	0.24079515
5	0x3ef05d42	0.4694615
6	0x3ed4e649	0.41581944
7	0x3e1f8e20	0.1558156

l3.weight f4 [15, 8]
0	0xbfd62bd7	-1.6732129
1	0xbeb525bf	-0.3538036
2	0x3e97f485	0.2967874
3	0xbe1b0977	-0.1514033
4	0xbe6c13d6	-0.23054442
5	0x3f2b22f4	0.6685021
6	0x3e9e3182	0.30897146
7	0x3da27add	0.079335906
8	0xbf77dc79	-0.9682079
9	0xbf1976bb	-0.59946793
10	0x3e52d64e	0.20589563
11	0x3f261021	0.6486836
12	0xbf91e4ee	-1.1397989
13	0xbf40d9d5	-0.75332385
14	0x3de4f583	0.1117964
15	0x3f705ed6	0.9389471
16	0xbf1e800e	-0.61914146
17	0x3eeb6078	0.45972037
18	0xbe967cdb	-0.29392132
19	0x3a831439	0.0010000534
20	0x3e85aa8e	0.26106685
21	0x3f52ef04	0.8239596
22	0xbf021f49	-0.5082899
23	0xbe866881	-0.26251605
24	0x3c87cc11	0.016576799
25	0x3f340761	0.7032376
26	0x3e8dc67e	0.276905
27	0xbf5a4a7e	-0.85269916
28	0xbf940f19	-1.1567107
29	0xbf8429ad	-1.0325218
30	0xbce369bf	-0.027760385
31	0xbf94cfe2	-1.1625941
32	0x3c8ae9cd	0.016957188
33	0xbf8b514e	-1.0884187
34	0x3e349c9d	0.17637868
35	0xbfa0de3e	-1.2567823
36	0xbf8e831d	-1.1133763
37	0xbf0bc34c	-0.54594874
38	0x3f2b24f8	0.66853285
39	0xbf2a3f42	-0.66502774
40	0x3ec433aa	0.38320667
41	0x3e0d4b6d	0.13798304
42	0xbee89832	-0.45428616
43	0xbdc09af3	-0.09404554
44	0x3f139df3	0.57662886
45	0xbf579e10	-0.8422556
46	0xbfb8dbcc	-1.4442077
47	0xbfc51599	-1.5397216
48	0x3f550ab5	0.8321946
49	0xbf54fbe0	-0.8319683
50	0xbf453a73	-0.7704231
51	0xbf9bee1e	-1.2182043
52	0xbf928a04	-1.1448369
53	0xbeec889d	-0.46197978
54	0x3deb7171	0.114962466
55	0xbf154190	-0.58303165
56	0x3f16f37e	0.5896529
57	0xbfbac0c8	-1.4590082
58	0x3ebd680f	0.36993453
59	0xbf915dc3	-1.1356739
60	0x3e1f35d7	0.15547882
61	0x3ef89ac5	0.4855558
62	0xbfad0a03	-1.351868
63	0xbf3fa5f7	-0.7486262
64	0x3e464be7	0.19364892
65	0x3d1c351d	0.03813659
66	0xbfb869c9	-1.4407283
67	0x3f1c086e	0.6095036
68	0xbf9326a9	-1.1496173
69	0xbf0214cc	-0.50812984
70	0xbfc1a66e	-1.5128915
71	0x3d846822	0.06465174
72	0x3f0fc8fe	0.56166065
73	0xbfd5e40f	-1.6710223
74	0xbf8dc350	-1.107523
75	0x3e833622	0.25627238
76	0x3e9d0333	0.30666503
77	0xbf58602f	-0.84521765
78	0xbf980bcd	-1.1878601
79	0xbe944660	-0.28959942
80	0x3db35ecc	0.087583154
81	0x3e9507b0	0.29107428
82	0xbe2c4acb	-0.16825406
83	0xbdb9dc40	-0.090752125
84	0xbe293e00	-0.16527557
85	0xbe9123f1	-0.28347734
86	0xbf1357bb	-0.5755574
87	0x3e18825f	0.14893483
88	0xbf0b090f	-0.543107
89	0xbc4cc777	-0.012498728
90	0xbea08a42	-0.31355482
91	0x3e835ad1	0.25655225
92	0x3efcef87	0.49401495
93	0xbf08319e	-0.5320071
94	0x3e76c4ea	0.24098554
95	0xbf97219e	-1.1807134
96	0xbf9afb2b	-1.21079
97	0x3efb51b0	0.4908576
98	0x3dba65d1	0.09101451
99	0xbf824247	-1.0176476
100	0xbfcef9ee	-1.6170022
101	0xbd0e67e2	-0.03476704
102	0x3efa11f0	0.4884181
103	0x3d8fd634	0.07023278
104	0xbdeb697e	-0.114947304
105	0xbe9b7a50	-0.30366755
106	0x3ed12086	0.40845126
107	0xbf943101	-1.1577455
108	0x3ea23220	0.31678867
109	0x3f145965	0.57948905
110	0xbdd8f6a1	-0.10593916
111	0xbfb68ad2	-1.4261115
112	0x3d91a4e1	0.07111526
113	0xbf9fa1c4	-1.2471242
114	0xbfa6f3f9	-1.3043205
115	0x3e0efa2f	0.13962625
116	0xbf806433	-1.0030578
117	0xbe140072	-0.14453295
118	0x3f1f7a4e	0.62296
119	0xbed7b524	-0.42130387

l3.bias f4 [15]
0	0x3e88bd92	0.2670713
1	0x3ed254e7	0.410804
2	0xbf013c43	-0.5048258
3	0xbe178bff	-0.14799498
4	0xbdfe77c1	-0.12425185
5	0x3dfdae3a	0.12386747
6	0xbe102e6f	-0.14080213
7	0xbe95d3b4	-0.2926308
8	0x3dab8fcb	0.08377036
9	0x3d42fc4b	0.047603887
10	0xbe992a18	-0.29914927
11	0xbd48f0a4	-0.049057618
12	0xbe60ba1d	-0.21945997
13	0xbe5fceaf	-0.21856187
14	0x3ec693a8	0.38784528
